checkpoints/prnet.pkl (torch, 33171 bytes, 10 tensors)

rnn.weight_ih_l0 f4 [96, 1]
0.101280615 0.2789881 0.112017654 0.019629816 0.14086412 -0.0013246011 -0.1465722 0.25504327
0.12216818 0.12952526 -0.011524118 -0.057137057 0.22324774 -0.07691502 0.08329239 -0.07469707
0.05806323 0.213714 -0.29482442 0.09909018 -0.17434137 -0.08635562 -0.26121646 0.21705492
-0.05254961 -0.042271327 -0.08796333 0.11269864 0.3004003 -0.20807196 -0.06916139 0.013884586
-0.15747906 0.10562402 -0.05904281 0.09252779 -0.28907734 -0.015059857 -0.31698623 -0.17730273
-0.13718203 -0.14179467 -0.012669713 0.03685073 -0.022428783 0.1569855 -0.034332857 -0.17660275
0.017172521 -0.036729608 0.12141771 0.32351604 -0.015793718 -0.15418588 0.035141554 -0.01888289
-0.12500888 0.18252173 0.16550471 -0.014966129 0.0137611 0.26359126 -0.0076672873 0.018727245
0.33328006 -0.027951555 0.06966295 -0.22469166 -0.07744496 -0.028039485 -0.11935197 0.13437162
-0.07197136 0.15460454 0.07651314 -0.23312736 0.11292242 -0.27979505 -0.08461957 0.28909543
-0.19363673 0.0024228748 0.30889282 0.018059712 0.0151618 0.17072065 -0.15014854 -0.014210247
0.09805215 -0.25961468 -0.3095982 0.067874454 0.008175544 -0.36820537 0.018007666 0.20198077
00000000: 366c cf3d 87d7 8e3e 8369 e53d b5ce a03c
00000010: af3e 103e 3d9e adba 0617 16be 0895 823e
00000020: 5033 fa3d 45a2 043e a7cf 3cbc 8c08 6abd
00000030: 0e9b 643e 9f85 9dbd 3395 aa3d c7fa 98bd
00000040: b6d3 6d3d d8d7 5a3e 3af3 96be cbef ca3d
00000050: 8b86 32be 37db b0bd 2abe 85be a543 5e3e
00000060: 433e 57bd b324 2dbd 1e26 b4bd 8bce e63d
00000070: 11ce 993e d110 55be 7da4 8dbd 2d7c 633c
00000080: 3142 21be 6851 d83d e0d6 71bd 367f bd3d
00000090: f201 94be 9ebd 76bc 054c a2be d98e 35be
000000a0: 7279 0cbe 9f32 11be a194 4fbc cbf0 163d
000000b0: 91bc b7bc cfc0 203e 9ca0 0cbd 5ad7 34be
000000c0: 63ad 8c3c c971 16bd d9a9 f83d e5a3 a53e
000000d0: d461 81bc e7e2 1dbe 97f0 0f3d 4ab0 9abc
000000e0: 5402 00be fae6 3a3e 117a 293e 7f34 75bc
000000f0: 3d76 613c 6ff5 863e de3d fbbb e169 993c
00000100: afa3 aa3e a9fa e4bc 73ab 8e3d 9215 66be
00000110: 779b 9ebd 10b3 e5bc ce6e f4bd b798 093e
00000120: b865 93bd a750 1e3e ecb2 9c3d f0b8 6ebe
00000130: df43 e73d 4c41 8fbe 064d adbd 5104 943e
00000140: b548 46be 18c9 1e3b 3327 9e3e f6f1 933c
00000150: 3369 783c 65d1 2e3e 8ac0 19be 19d2 68bc
00000160: 91cf c83d 37ec 84be a883 9ebe c301 8b3d
00000170: b8f2 053c 6a85 bcbe d084 933c 0cd4 4e3e

rnn.weight_hh_l0 f4 [96, 32]
-0.22778046 0.32387477 -0.056527376 0.287743 0.2687248 -0.19455045 0.106304 -0.01897327
0.13785747 -0.1556402 -0.034669977 0.09959273 0.10483763 0.2412807 0.086710006 -0.19938543
0.29408032 -0.08872046 -0.29421282 -0.0061551817 -0.13764209 -0.18516104 0.33660072 0.17833048
0.0032926318 0.015477713 0.34933624 0.20955066 0.04561812 0.0590547 0.16433658 -0.25777155
-0.040914126 0.10918972 -0.10148464 0.3477302 0.103323475 -0.06296518 -0.22533387 0.058589574
-0.024996921 0.122513905 0.0464624 -0.13823041 -0.1843324 0.23577312 -0.27644768 -0.12184381
0.034605328 -0.06446889 0.02364732 0.013556405 -0.0070489217 0.022155603 0.21987902 0.09745586
0.0036555112 -0.079643704 0.14282931 0.26535842 0.00021297795 -0.056123793 0.26947334 -0.0728859
0.07500914 -0.22077154 -0.0040284875 -0.061421286 -0.21678032 -0.08875192 -0.0044303397 0.07617704
-0.1734566 0.23763935 -0.0014087867 -0.27071592 0.07123206 0.057440896 -0.051381122 -0.004576165
-0.22739781 0.0076334653 0.14507839 0.13772969 0.19320287 -0.08000064 -0.13988343 -0.022844285
0.08137285 0.021375014 -0.12201311 -0.021398434 -0.19761422 0.114018805 -0.12958108 0.16979304
-0.05312981 0.055019975 0.19995396 0.06796303 0.186283 -0.16872776 -0.019205173 -0.113411725
-0.17005973 -0.012769339 0.17905313 0.1857287 -0.18371356 -0.044174924 -0.08431218 0.107149296
0.20665078 -0.2557908 -0.12887587 -0.117051676 0.06962775 -0.06581006 0.08399252 0.18666938
0.0046848888 0.01298477 0.041334596 0.24167384 0.1557874 -0.050566554 0.17989942 -0.08086381
-0.19029908 0.27141467 -0.1323755 0.04901585 -0.013150282 0.08752033 0.019029548 0.14577048
0.04839698 0.08983693 -0.027882075 0.2564123 -0.003613824 0.3035121 -0.11938445 0.029023573
0.13656373 -0.15439318 -0.10135521 -0.03583125 -0.18887237 -0.17752792 0.004973924 0.06619179
0.077648215 0.042221077 0.27031237 0.06643365 0.22648162 -0.08405631 0.046840347 -0.043344904
-0.10026957 0.0065572048 0.10830705 -0.04489335 0.09077215 0.046308484 -0.13521814 0.00091282907
-0.01967721 -0.098057784 0.20729604 0.2136598 -0.16334468 0.06842013 -0.03729061 -0.13052715
-0.05332208 -0.035060454 -0.17508867 0.09138423 -0.120240465 -0.012938905 0.19282933 0.24004146
-0.02467079 0.09624613 -0.07915226 -0.044537816 -0.17582335 0.17008542 0.020287072 -0.056277588
0.24665682 -0.20435849 0.24189803 -0.08062322 -0.20190197 0.014521834 0.04439077 0.022599578
-0.1769078 0.038699094 0.11821924 -0.05638296 -0.0076195747 -0.18153475 -0.010904591 0.2586893
0.16517371 -0.13801564 -0.1671818 0.027121538 0.14519292 0.08564761 0.012819269 -0.0031731427
0.17889462 -0.18508771 -0.15311685 0.1190838 -0.14402734 0.21799886 -0.21181901 -0.034637313
0.106471315 -0.073177524 0.12605666 -0.1082756 -0.04073841 -0.21416083 -0.22729258 -0.20589912
-0.15591736 -0.031266056 -0.015724206 0.08559172 -0.1205442 0.11920861 -0.27853093 -0.12176644
0.0030319488 -0.17745495 -0.1017707 -0.17125195 0.02221334 0.1188185 0.033528626 0.16990854
-0.25317103 -0.06636088 0.09747322 0.052010275 -0.25017217 0.049700443 0.2542535 0.044958763
00000000: 483f 69be ead2 a53e 4089 67bd 0d53 933e
00000010: 4c96 893e 3c38 47be e9b5 d93d d56d 9bbc
00000020: 822a 0d3e 2560 1fbe 1b02 0ebd 46f7 cb3d
00000030: 1db5 d63d 4a12 773e 0495 b13d b22b 4cbe
00000040: b291 963e 13b3 b5bd 10a3 96be 68b1 c9bb
00000050: 0cf2 0cbe db9a 3dbe ee56 ac3e 449c 363e
00000060: 32c9 573b 3c96 7d3c 33dc b23e 7394 563e
00000070: 11da 3a3d 57e3 713d d947 283e a2fa 83be
00000080: 9295 27bd dc9e df3d 2ed7 cfbd b109 b23e
00000090: 429b d33d e3f3 80bd ecbd 66be 9ffb 6f3d
000000a0: 58c6 ccbc 92e8 fa3d 5c4f 3e3d 468c 0dbe
000000b0: a2c1 3cbe 826e 713e 8d8a 8dbe 3f89 f9bd
000000c0: 51be 0d3d 4408 84bd 06b8 c13c af1b 5e3c
000000d0: a4fa e6bb ab7f b53c f727 613e f096 c73d
000000e0: 4d91 6f3b 3d1c a3bd d941 123e 0fdd 873e
000000f0: d552 5f39 10e2 65bd 69f8 893e 3445 95bd
00000100: 649e 993d ef11 62be 6701 84bb e394 7bbd
00000110: a9fb 5dbe 91c3 b5bd 622c 91bb b502 9c3d
00000120: 9b9e 31be bb57 733e 0aa7 b8ba 479b 8abe
00000130: 1de2 913d 2547 6b3d 0375 52bd a8f3 95bb
00000140: f9da 68be 2622 fa3b 6e8f 143e 0309 0d3e
00000150: f9d6 453e 60d7 a3bd 9a3d 0fbe f023 bbbc
00000160: cfa6 a63d a71a af3c 02e2 f9bd c54b afbc
00000170: 625b 4abe b182 e93d e7b0 04be 3ade 2d3e
00000180: a59e 59bd a05c 613d bbc0 4c3e 3330 8b3d
00000190: f9c0 3e3e f8c6 2cbe 2b54 9dbc 6844 e8bd
000001a0: 2324 2ebe 7d36 51bc b459 373e aa2f 3e3e
000001b0: 681f 3cbe c4f0 34bd ddab acbd 1771 db3d
000001c0: 439c 533e 03f7 82be 09f8 03be cab8 efbd
000001d0: fe98 8e3d 6dc7 86bd 4504 ac3d 4226 3f3e
000001e0: b283 993b 13be 543c 774e 293d 5979 773e
000001f0: bb86 1f3e e01e 4fbd 8e37 383e ed9b a5bd
00000200: c3dd 42be ddf6 8a3e 718d 07be d8c4 483d
00000210: 4874 57bc dc3d b33d dbe3 9b3c db44 153e
00000220: e93b 463d 6dfc b73d f368 e4bc 7948 833e
00000230: e8d5 6cbb f065 9b3e d67f f4bd d8c2 ed3c
00000240: 5dd7 0b3e 3f19 1ebe 5293 cfbd cac3 12bd
00000250: c267 41be e1c9 35be 4cfc a23b 908f 873d
00000260: 0706 9f3d 02f0 2c3d 6266 8a3e 5e0e 883d
00000270: ccea 673e b725 acbd aadb 3f3d 6d8a 31bd
00000280: 225a cdbd d2dd d63b 16d0 dd3d 17e2 37bd
00000290: c0e6 b93d f7ad 3d3d a076 0abe ec4a 6f3a
000002a0: 1a32 a1bc 85d2 c8bd 6a45 543e a2c9 5a3e
000002b0: d443 27be da1f 8c3d 0abe 18bd e9a8 05be
000002c0: 4168 5abd 8d9b 0fbd 724a 33be a827 bb3d
000002d0: a240 f6bd b3fd 53bc 0d75 453e 6ecd 753e
000002e0: 661a cabc b11c c53d 951a a2bd 496d 36bd
000002f0: 090b 34be df2a 2e3e 1331 a63c 5483 66bd
00000300: 9b93 7c3e 5a43 51be 1eb4 773e c91d a5bd
00000310: 64bf 4ebe fdec 6d3c 19d3 353d c022 b93c
00000320: 5127 35be f182 1e3d ee1c f23d d2f1 66bd
00000330: a0ad f9bb 3fe4 39be 2ba9 32bc ed72 843e
00000340: 4c23 293e f953 0dbe b531 2bbe fd2d de3c
00000350: 74ad 143e 0468 af3d e907 523c 80f4 4fbb
00000360: 2730 373e a287 3dbe aaca 1cbe 35e2 f33d
00000370: e77b 13be 183b 5f3e 15e7 58be dbdf 0dbd
00000380: a20d da3d 19de 95bd ff14 013e 99bf ddbd
00000390: 52dd 26bd fa4c 5bbe 63bf 68be 38d7 52be
000003a0: cda8 1fbe d610 00bd 0dd0 80bc b64a af3d
000003b0: e1df f6bd a523 f43d 9b9b 8ebe af60 f9bd
000003c0: a9b3 463b c0b6 35be 286d d0bd ac5c 2fbe
000003d0: c0f8 b53c 1d57 f33d 5055 093d 81fc 2d3e
000003e0: a29f 81be 37e8 87bd 0aa0 c73d ba08 553d
000003f0: 9116 80be b192 4b3d 842d 823e ae26 383d

rnn.bias_ih_l0 f4 [96]
-0.10423166 0.2504092 0.17152531 0.15846802 0.20637365 0.24993359 0.058335267 0.05698205
0.05476051 0.14551696 0.18988337 0.10169687 0.07386754 -0.02509938 0.24496378 0.001630668
0.008246952 0.283103 -0.05387469 0.17029423 0.1867398 -0.032884806 0.124112405 0.16428356
0.2124712 0.26669896 0.19169746 0.013818231 0.06266085 -0.06316691 0.0148742385 0.2645833
-0.0016995099 -0.09831725 0.10932647 -0.0136415325 0.06380032 0.28560296 0.2122745 -0.0035627107
0.07209367 -0.28095126 0.39738047 -0.12834986 -0.2698683 -0.092454076 0.18647829 -0.16171238
-0.021666897 -0.13771535 -0.19957046 0.2961278 -0.01909122 -0.10888901 -0.1057477 0.028797936
-0.23156637 0.058393173 -0.056441415 0.2544572 0.41431105 -0.13526395 -0.067150384 0.15917605
-0.11472348 -0.05229473 0.08501976 -0.01977695 0.05795319 -0.021825992 -0.113319166 -0.25502837
0.0155665465 -0.14724432 0.06139904 0.13991386 -0.34636414 -0.07615934 -0.14362721 0.002480027
0.06173857 0.05627564 -0.08642959 0.008865941 -0.047364708 -0.15960288 -0.12061854 0.05382057
-0.24590795 0.07409632 -0.17401095 0.10066506 -0.11308458 0.037449118 -0.0029802565 -0.079013035
00000000: 6977 d5bd a235 803e 55a4 2f3e 7145 223e
00000010: 9d53 533e 97ee 7f3e f6f0 6e3d 0366 693d
00000020: 8e4c 603d 6602 153e c970 423e 7346 d03d
00000030: dd47 973d 379d cdbc c9d7 7a3e 23bc d53a
00000040: 391e 073c e0f2 903e b5ab 5cbd 9c61 2e3e
00000050: b838 3f3e 38b2 06bd a52e fe3d f339 283e
00000060: 0d92 593e c48c 883e 574c 443e dd65 623c
00000070: 5554 803d a75d 81bd 14b3 733c 7677 873e
00000080: 17c2 deba 8e5a c9bd 8ee6 df3d bc80 5fbc
00000090: bea9 823d 8d3a 923e 7d5e 593e 5e7c 69bb
000000a0: d9a5 933d d8d8 8fbe 7475 cb3e 256e 03be
000000b0: 2e2c 8abe 9058 bdbd 2af4 3e3e ee97 25be
000000c0: c77e b1bc 4105 0dbe 335c 4cbe 109e 973e
000000d0: 3165 9cbc 3401 dfbd 4092 d8bd a6e9 eb3c
000000e0: bc1f 6dbe ae2d 6f3d 1d2f 67bd 3748 823e
000000f0: 9420 d43e a282 0abe 2486 89bd 0cff 223e
00000100: 25f4 eabd 0033 56bd d71e ae3d 4503 a2bc
00000110: 5360 6d3d 6ccc b2bc e113 e8bd 1493 82be
00000120: d40a 7f3c 37c7 16be 8f7d 7b3d 9445 0f3e
00000130: a456 b1be 6ef9 9bbd 0313 13be f387 223b
00000140: 95e1 7c3d 4981 663d ff01 b1bd 7442 113c
00000150: 7f01 42bd f06e 23be da06 f7bd f572 5c3d
00000160: 4bcf 7bbe d0bf 973d ed2f 32be 7c29 ce3d
00000170: e398 e7bd 3f64 193d 6850 43bb 96d1 a1bd

rnn.bias_hh_l0 f4 [96]
-0.021877512 0.16621946 0.18145497 0.20200562 0.14925176 -0.027409494 0.10985205 0.035651762
0.060379583 0.011474999 0.1567885 0.1269215 0.25555408 0.2096078 -0.025092874 0.09228812
-0.030304091 0.05942406 0.123813614 0.08398494 -0.030749517 0.2761668 0.17027545 -0.0024476745
0.13364765 0.2527657 -0.025633417 -0.0030026129 -0.06500002 -0.0015311601 0.25873274 0.18689139
-0.02470556 -0.25957507 -0.018645898 0.09149817 0.0010608748 0.0678774 0.039928146 -0.16441032
0.10975102 -0.17669484 0.41137615 -0.06548676 -0.1555559 0.1067862 0.106046505 -0.0028978582
-0.072565764 -0.18520387 -0.19311759 0.40915698 0.29195774 -0.06048621 0.10378312 0.06877205
-0.098494396 -0.127705 -0.17813498 0.14182049 0.1443995 0.08518102 -0.066239215 -0.06867346
-0.13898048 0.14173713 -0.078918375 -0.059853964 -0.1745596 0.13992526 0.007793576 -0.10786228
-0.14099015 -0.011560555 -0.040116888 -0.06832828 -0.14552274 0.021628035 0.026453549 0.056729127
0.027827173 -0.13391353 -0.13865583 -0.006979036 0.11721289 0.15222776 0.13571218 0.1699491
-0.055678435 -0.011814187 0.11536212 0.17539778 0.18712203 -0.003167196 -0.025722234 -0.08334606
00000000: 7838 b3bc 6f35 2a3e 55cf 393e 90da 4e3e
00000010: 74d5 183e e089 e0bc 1dfa e03d 9507 123d
00000020: 9550 773d a201 3c3c 2a8d 203e b6f7 013e
00000030: fcd7 823e 6da3 563e 928f cdbc 8e01 bd3d
00000040: 4940 f8bc a566 733d fe91 fd3d 4c00 ac3d
00000050: 69e6 fbbc bc65 8d3e b05c 2e3e 2a69 20bb
00000060: eeda 083e 816a 813e 2cfd d1bc 7cc7 44bb
00000070: bb1e 85bd 35b1 c8ba 9e78 843e 7560 3f3e
00000080: 5163 cabc 06e7 84be 48bf 98bc 6463 bb3d
00000090: 0d0d 8b3a 4e03 8b3d b28b 233d 2e5b 28be
000000a0: 25c5 e03d 7eef 34be e59f d23e ec1d 86bd
000000b0: 0c4a 1fbe b9b2 da3d e92e d93d fee9 3dbb
000000c0: 5c9d 94bd 15a6 3dbe 9ec0 45be 067d d13e
000000d0: 7c7b 953e 63c0 77bd 3f8c d43d 5cd8 8c3d
000000e0: 6eb7 c9bd 19c5 02be 0469 36be 6439 113e
000000f0: 76dd 133e 6373 ae3d 6da8 87bd aca4 8cbd
00000100: e650 0ebe 8a23 113e f59f a1bd 6e29 75bd
00000110: c0bf 32be 9148 0f3e 4161 ff3b e6e6 dcbd
00000120: b95f 10be 7b68 3dbc 9b51 24bd b2ef 8bbd
00000130: ea03 15be 472d b13c 1db5 d83c cd5c 683d
00000140: d0f5 e33c a120 09be cbfb 0dbe 66b0 e4bb
00000150: 500d f03d 98e1 1b3e 22f8 0a3e 2307 2e3e
00000160: 120f 64bd 4b90 41bc fa42 ec3d 7a9b 333e
00000170: eb9c 3f3e bb90 4fbb 6fb7 d2bc 57b1 aabd

attn.in_proj_weight f4 [96, 32]
-0.040035248 -0.06004273 0.05671222 0.02758317 -0.29424292 0.1489618 0.20778878 0.19194014
-0.22561482 -0.09486569 -0.19349249 0.01907436 0.30708796 -0.26247805 0.049892668 0.29661924
0.039580572 0.22479446 -0.058002938 -0.09489435 -0.10999785 0.185773 -0.046499368 -0.1597467
0.1549606 0.09611924 0.010325476 -0.24868004 0.13043518 -0.030450603 -0.24619274 0.26233742
0.12212508 -0.37281448 0.17394057 -0.35654917 -0.25850505 0.16543032 0.2124316 0.35503405
0.005653288 0.2946691 0.05409615 -0.24152498 0.42592585 -0.20077135 0.40352067 0.39798757
-0.24172398 0.2175124 0.2874536 0.3943376 -0.3534372 0.4422546 -0.16243856 -0.4880506
0.36867505 -0.4267332 -0.024260754 -0.4530916 0.26425904 -0.118300304 -0.35291085 0.17185162
0.27127606 -0.3131592 -0.014260166 0.086929165 -0.11248142 0.10036226 0.040594246 0.09021434
0.13165368 0.14046323 0.15593216 -0.2769286 0.2396547 -0.106854804 0.032476515 -0.036086682
-0.18182631 0.21775115 -0.035509996 -0.034946945 -0.23454759 -0.00024650144 -0.26764467 -0.20088123
0.19999465 -0.17419566 -0.11698054 -0.32174903 0.2404976 -0.0757795 -0.1861212 0.19832803
-0.36017644 -0.05753067 -0.014903486 0.08384858 0.38290685 -0.25093117 -0.24352367 -0.33291277
-0.005067654 -0.24608758 -0.11575431 0.121646814 -0.05668328 0.31342864 -0.31000432 -0.3066744
0.35498485 -0.1936107 -0.25228307 -0.20031415 0.06556617 0.041009657 0.35334167 0.21548392
-0.11525526 0.059726737 0.25743866 0.07127418 -0.32311353 0.046310533 0.09417582 -0.2671378
0.14827004 0.037688017 -0.059697054 0.12995954 -0.28257805 0.13032497 0.11443788 -0.1318046
-0.122981235 0.2856581 0.0726275 -0.0621249 0.054124076 -0.114958204 0.26751798 0.1581723
0.054980434 -0.12297406 0.12699607 -0.039809715 -0.0829398 0.18827824 -0.19065131 -0.10196837
0.13747256 -0.073861726 -0.1313564 0.113863945 -0.08666226 -0.15087374 -0.23618345 0.289293
0.18261355 -0.22463354 -0.17648132 -0.08057735 -0.0343703 0.2787182 0.27021694 0.14589237
-0.06345577 0.13004492 -0.17610715 -0.31195343 0.2317665 -0.08296531 -0.0012213574 0.012019264
-0.24953946 0.09504525 0.25392994 0.10350122 -0.10349576 0.34171692 -0.28516248 -0.38466954
0.36311036 -0.20245415 -0.123392396 -0.039384644 0.33537003 -0.090287775 -0.15823683 0.027569694
-0.1301827 -0.0094912145 0.20236151 0.0869383 0.07022815 -0.031324826 0.056278862 -0.1925407
-0.1516286 0.12480315 -0.18241134 -0.07284046 -0.19426516 0.2721097 -0.08507037 -0.13567892
0.28512305 -0.10586019 0.054878917 0.0008085584 0.22976181 -0.18113184 -0.10187749 0.27251995
0.03871728 -0.11300959 0.15632915 0.2062404 -0.059974305 -0.034250375 0.07743042 -0.00027934273
0.27828142 -0.29988694 0.09266328 -0.25189707 -0.21743 0.18869323 0.27520344 -0.07929304
-0.26377514 -0.028367657 -0.10180544 -0.25328967 0.10907366 0.0056943335 0.28778717 0.04125364
-0.09908552 0.1557248 0.15645057 -0.0074364445 -0.18432908 0.21218354 -0.22890034 -0.07439899
0.20959535 -0.24538624 -0.09657619 -0.15205581 0.0019871434 -0.22805765 -0.22863477 0.112561256
00000000: 00fc 23bd 5eef 75bd 134b 683d 1af6 e13c
00000010: 02a7 96be 7189 183e 95c6 543e f58b 443e
00000020: 9207 67be f148 c2bd e522 46be d541 9c3c
00000030: a23a 9d3e 8663 86be 415c 4c3d 7ade 973e
00000040: 3d1f 223d 8530 663e 7d94 6dbd f857 c2bd
00000050: 8e46 e1bd 473b 3e3e 1f76 3ebd a494 23be
00000060: fead 1e3e 2ada c43d 2f2c 293c fba5 7ebe
00000070: cd90 053e 8b73 f9bc f319 7cbe 1751 863e
00000080: b71c fa3d 8ae1 bebe 7a1d 323e 9d8d b6be
00000090: c65a 84be 9166 293e ab87 593e 06c7 b53e
000000a0: 383f b93b dede 963e ed93 5d3d 5352 77be
000000b0: f412 da3e 0197 4dbe 439a ce3e 07c5 cb3e
000000c0: 7e86 77be 92bb 5e3e 1e2d 933e 9ee6 c93e
000000d0: b8f5 b4be 326f e23e 4b56 26be c5e1 f9be
000000e0: fac2 bc3e c67c dabe 7dbe c6bc 9ffb e7be
000000f0: f64c 873e 6e47 f2bd bbb0 b4be dff9 2f3e
00000100: b2e4 8a3e 6756 a0be 79a3 69bc eb07 b23d
00000110: a95c e6bd bb8a cd3d 2746 263d 4cc2 b83d
00000120: 39d0 063e 98d5 0f3e aeac 1f3e 96c9 8dbe
00000130: 0b68 753e b1d6 dabd 1806 053d a1cf 13bd
00000140: ad30 3abe 28fa 5e3e ee72 11bd 8724 0fbd
00000150: 3e2d 70be dd3c 81b9 b908 89be cfb3 4dbe
00000160: 66cb 4c3e 5960 32be 7e93 efbd 4abc a4be
00000170: 0145 763e 4832 9bbd 8e96 3ebe 8116 4b3e
00000180: 0c69 b8be 48a5 6bbd c02d 74bc ceb8 ab3d
00000190: 5e0c c43e 0d7a 80be 455e 79be 8b73 aabe
000001a0: 900e a6bb 62fe 7bbe 9810 edbd f721 f93d
000001b0: ba2c 68bd b879 a03e e3b8 9ebe 6d04 9dbe
000001c0: 93c0 b53e e241 46be 3f2b 81be 271f 4dbe
000001d0: 8e47 863d bef9 273d 33e9 b43e d1a7 5c3e
000001e0: f30a ecbd 06a4 743d 00cf 833e 33f8 913d
000001f0: 236f a5be 1db0 3d3d 41df c03d 49c6 88be
00000200: 1ad4 173e c05e 1a3d e684 74bd 1d14 053e
00000210: 12ae 90be e973 053e 685e ea3d c9f7 06be
00000220: 96dd fbbd c741 923e babd 943d ae76 7ebd
00000230: 35b1 5d3d 356f ebbd 1ef8 883e ebf7 213e
00000240: 2a33 613d d3d9 fbbd 420b 023e 830f 23bd
00000250: 58dc a9bd 03cc 403e 193a 43be cbd4 d0bd
00000260: 9bc5 0c3e d144 97bd 4b82 06be 8031 e93d
00000270: fc7b b1bd a57e 1abe 13da 71be 361e 943e
00000280: 0cff 3a3e 5606 66be 85b7 34be bd05 a5bd
00000290: dfc7 0cbd 27b4 8e3e e059 8a3e cf64 153e
000002a0: 19f5 81bd 7f2a 053e 6f55 34be 5cb8 9fbe
000002b0: 3354 6d3e b7e9 a9bd f415 a0ba 72ec 443c
000002c0: 4687 7fbe 16a7 c23d 1b03 823e 73f8 d33d
000002d0: 96f5 d3bd 85f5 ae3e d100 92be 68f3 c4be
000002e0: 9ae9 b93e 2450 4fbe 27b5 fcbd cb51 21bd
000002f0: 9fb5 ab3e cce8 b8bd d608 22be d7d9 e13c
00000300: 9d4e 05be 0a81 1bbc db37 4f3e b50c b23d
00000310: c7d3 8f3d 764e 00bd aa84 663d 6429 45be
00000320: 8744 1bbe cb98 ff3d 0aca 3abe 612d 95bd
00000330: 72ed 46be f651 8b3e 6039 aebd 6aef 0abe
00000340: a6fb 913e 3acd d8bd b7c8 603d 70f5 533a
00000350: ae46 6b3e a07a 39be 25a5 d0bd bc87 8b3e
00000360: 0396 1e3d 9271 e7bd c014 203e af30 533e
00000370: 9ea7 75bd 1f4a 0cbd d793 9e3d bf74 92b9
00000380: e77a 8e3e c88a 99be 3fc6 bd3d a7f8 80be
00000390: f8a5 5ebe cc38 413e 77e7 8c3e 6464 a2bd
000003a0: 890d 87be 4a63 e8bc 5f7f d0bd 2faf 81be
000003b0: 0362 df3d 8897 ba3b d758 933e 94f9 283d
000003c0: 59ed cabd 5276 1f3e 9434 203e 6bad f3bb
000003d0: c3c0 3cbe a446 593e da64 6abe 7f5e 98bd
000003e0: 2aa0 563e 8846 7bbe bdc9 c5bd 85b4 1bbe
000003f0: bc3a 023b f287 69be 3c1f 6abe 8486 e63d

attn.in_proj_bias f4 [96]
-0.10627677 -0.22206038 -0.101882435 0.14116156 -0.07014958 -0.16379914 0.080559894 -0.105554596
-0.1174436 0.0935736 0.14233391 -0.091648154 -0.11013176 0.104896545 -0.0855811 -0.0665877
-0.100156546 0.107620545 -0.09797435 -0.011987472 0.13991004 -0.078604616 0.13230237 -0.22228268
-0.13318369 -0.140756 -0.27910432 -0.2834124 -0.15815885 0.015762204 0.11167858 0.08094244
-0.005887008 0.0012556908 0.0012946904 -0.0007626708 -0.0045665912 -0.0014075324 0.0020371946 -0.0015431198
-0.002120739 0.0023913707 0.00017877758 -0.0010177806 -0.001483114 0.0023050786 -0.0009257569 0.003653777
-0.00066105445 -0.0038028213 0.007213269 -0.015915252 -0.012708138 0.03159975 -0.006290515 0.002095165
0.0065950733 0.009561229 -0.001968458 0.010718282 0.005114657 0.028372752 -0.0031805977 -0.0045897583
-0.01400871 0.0006440932 0.016997984 0.009352467 -0.019850062 -0.018169606 0.09027679 0.025893938
0.04392561 0.04869171 0.032343008 -0.02514899 0.071425155 0.023772364 0.0049087703 -0.0005594881
-0.08033 0.12069186 -0.079964474 -0.04968323 -0.034748502 -0.019384107 0.045553 0.07609709
-0.031346243 0.078224756 0.13900481 -0.12997541 -0.044026725 -0.00998217 0.04194282 -0.012277499
00000000: a3a7 d9bd cc63 63be bda7 d0bd a88c 103e
00000010: 95aa 8fbd f6ba 27be 96fc a43d 022d d8bd
00000020: 4586 f0bd 84a3 bf3d fbbf 113e 07b2 bbbd
00000030: c38c e1bd 00d4 d63d 2545 afbd 225f 88bd
00000040: e01e cdbd 2968 dc3d c7a6 c8bd 1a67 44bc
00000050: 9444 0f3e 75fb a0bd 467a 073e 129e 63be
00000060: 4e61 08be 5722 10be c3e6 8ebe 6e1b 91be
00000070: 65f4 21be bd1f 813c bdb7 e43d 26c5 a53d
00000080: cde7 c0bb fe95 a43a 9ab2 a93a f9ed 47ba
00000090: 58a3 95bb f37c b8ba 7482 053b 8242 caba
000000a0: 19fc 0abb 8bb8 1c3b 3e76 3b39 0d67 85ba
000000b0: 0c65 c2ba cd10 173b 7eae 72ba 3574 6f3b
000000c0: 9d4a 2dba c138 79bb 495d ec3b b460 82bc
000000d0: cb35 50bc bd6e 013d aa20 cebb 094f 093b
000000e0: 7c1b d83b b3a6 1c3c 3f01 01bb bc9b 2f3c
000000f0: da98 a73b f96d e83c 9371 50bb af65 96bb
00000100: ca84 65bc 5dd8 283a 5b3f 8b3c 173b 193c
00000110: 999c a2bc 6dd8 94bc 0ae3 b83d 861f d43c
00000120: 57eb 333d f570 473d 1a7a 043d 4105 cebc
00000130: 5a47 923d 43be c23c c0d9 a03b 9caa 12ba
00000140: 0e84 a4bd 4b2d f73d 6ac4 a3bd a580 4bbd
00000150: 7254 0ebd 6bcb 9ebc c895 3a3d cbd8 9b3d
00000160: eb64 00bd 4d34 a03d 4757 0e3e 4618 05be
00000170: 5e55 34bd 418c 23bc 3ccc 2b3d 9027 49bc

attn.out_proj.weight f4 [32, 32]
-0.020634312 -0.12848392 -0.011980382 -0.017637774 -0.24773107 -0.11291293 0.1529321 0.14707758
-0.0036490848 0.01023421 0.12373985 -0.2968984 -0.031954717 0.20905778 -0.18065618 -0.16522676
-0.22423165 0.18895769 -0.042949583 -0.14217182 0.006443517 0.0009639006 -0.007610644 0.07201137
-0.03265974 5.619299e-06 0.29817027 -0.06688139 0.07415896 -0.09682449 -0.13200475 -0.015866958
-0.15137315 -0.072468154 -0.014350788 -0.25023678 0.01573643 -0.108824655 0.3534762 -0.07562297
-0.115839496 -0.023028873 0.102141656 -0.14867908 0.3489351 0.048964903 -0.1361253 0.12284144
-0.24065517 0.3648286 -0.0817295 -0.08213407 0.006769564 -0.047029514 0.08585573 0.23499314
-0.17948055 0.04793932 0.16483675 -0.14792377 0.049019583 -0.18188387 -0.007800574 -0.105757385
-0.16702634 -0.08025864 0.14658123 0.027099632 0.013960543 -0.17126878 0.18970634 0.12844524
0.07055486 0.26092494 0.013650688 -0.24282238 0.34359542 -0.10189654 -0.07215229 -0.031075632
-0.20841104 0.24675547 -0.036110293 -0.008676865 -0.18331832 -0.16160448 0.12391563 0.23928815
-0.113874614 0.31581587 0.17050336 -0.20280603 0.06447157 -0.058797926 0.090029635 -0.09274441
-0.14229226 -0.06313402 -0.10435014 -0.23220603 0.093280636 0.19826658 0.086756654 -0.13928306
0.011890939 -0.06633568 -0.22549453 0.09006948 0.023103239 -0.099635296 0.077262826 0.21789852
0.037041843 0.10400482 0.15568607 0.20068005 0.1913351 -0.107870445 -0.1343795 -0.021752957
-0.13351503 0.03763577 0.16694939 0.030114047 0.26746207 -0.12817928 -0.17127578 -0.09028305
-0.02102893 -0.022680582 -0.038596064 -0.12879944 -0.070946105 -0.053069483 0.05540111 0.16507393
0.010701948 0.08907824 0.089655325 0.026995724 0.3083983 0.13813792 -0.25031906 0.08406866
-0.29971492 0.3272225 -0.0849218 -0.132022 -0.022370346 -0.08701451 0.07405608 0.0914347
-0.2142616 0.19467887 0.11517384 -0.08181462 0.092311494 0.052862152 0.10306102 -0.21172725
0.08143246 0.05650778 0.24497417 0.24415903 -0.3168336 -0.2973269 -0.09667421 0.12331694
0.1825704 -0.00065516296 -0.027655832 0.18117706 -0.18770143 0.025635235 -0.041158315 -0.08570574
0.13281824 0.16699705 -0.09321828 -0.01683298 -0.21572836 0.09091181 -0.20447804 0.035305794
0.05278745 0.15091783 0.12016958 -0.016223311 -0.15117864 0.17947398 0.28251716 0.040396076
-0.0034148616 -0.15698072 -0.12884219 -0.17991106 -0.028375328 0.042256057 0.14880902 -0.22915177
-0.288169 0.0020729655 -0.039621677 -0.20439015 0.1385993 -0.10939809 -0.0750225 0.23443401
0.11686617 0.0003845373 -0.1919903 0.24911676 0.24481975 -0.2547009 0.05764959 0.008273195
-0.055862244 -0.08737502 0.1746491 -0.15970542 -0.007998899 -0.22995378 -0.2072995 -0.14546062
-0.026417337 -0.21732463 -0.2935048 0.07458528 0.34242305 0.2818276 -0.05115978 -0.05804611
-0.11331304 -0.007407423 -0.24768692 -0.075807646 0.07992312 -0.24348733 0.019316962 0.3042337
-0.10580257 -0.0013868723 -0.049590312 -0.029546032 0.17621492 -0.27609056 -0.0541016 -0.09427756
-0.22172403 -0.19395566 0.14027669 0.12789898 0.028647069 0.07540603 -0.28093666 -0.067043446
00000000: 4a09 a9bc 4a91 03be 5d49 44bc 187d 90bc
00000010: 37ad 7dbe e53e e7bd 3c9a 1c3e 819b 163e
00000020: 7c25 6fbb 63ad 273c 526b fd3d 1103 98be
00000030: f3e2 02bd 3e13 563e effd 38be 3431 29be
00000040: fb9c 65be 207e 413e e7eb 2fbd 7d95 11be
00000050: 2324 d33b 46ae 7c3a b662 f9bb b27a 933d
00000060: 38c6 05bd 698d bc36 c6a9 983e 1cf9 88bd
00000070: a7e0 973d eb4b c6bd 412c 07be 6cfb 81bc
00000080: 9001 1bbe 2f6a 94bd 911f 6bbc 091f 80be
00000090: b0e9 803c 76df debd d5fa b43e 37e0 9abd
000000a0: 423d edbd 0ca7 bcbc a52f d13d 543f 18be
000000b0: 9fa7 b23e 6c8f 483d 6e64 0bbe 4b94 fb3d
000000c0: 4f6e 76be d0ca ba3e cc61 a7bd e835 a8bd
000000d0: 38d3 dd3b 05a2 40bd 21d5 af3d 0ba2 703e
000000e0: c0c9 37be 055c 443d f7ca 283e 5479 17be
000000f0: c2c8 483d c43f 3abe f59b ffbb 5497 d8bd
00000100: f408 2bbe a45e a4bd 6419 163e 0c00 de3c
00000110: c3ba 643c 1561 2fbe 6142 423e 2687 033e
00000120: 117f 903d f497 853e 23a7 5f3c 6ea6 78be
00000130: bdeb af3e 22af d0bd 94c4 93bd 5392 febc
00000140: b469 55be 77ad 7c3e 63e8 13bd 6929 0ebc
00000150: ccb7 3bbe a57b 25be 7ac7 fd3d f407 753e
00000160: 1837 e9bd 9eb2 a13e 6f98 2e3e 62ac 4fbe
00000170: ac09 843d 18d6 70bd 7561 b83d c8f0 bdbd
00000180: 10b5 11be 694c 81bd 87b5 d5bd 6bc7 6dbe
00000190: eb09 bf3d 6506 4b3e 79ad b13d 38a0 0ebe
000001a0: 37d2 423c 00db 87bd 0ae8 66be 5976 b83d
000001b0: 0143 bd3c 970d ccbd f93b 9e3d ca20 5f3e
000001c0: 30b9 173d 7b00 d53d 2b6c 1f3e 127f 4d3e
000001d0: 59ed 433e 2eeb dcbd c89a 09be 4233 b2bc
000001e0: 2ab8 08be f727 1a3d c8f4 2a3e bcb1 f63c
000001f0: caf0 883e 6e41 03be eb62 2fbe 52e6 b8bd
00000200: dd44 acbc a1cc b9bc e816 1ebd 00e4 03be
00000210: 314c 91bd 635f 59bd 46ec 623d 2409 293e
00000220: 3957 2f3c a76e b63d 369d b73d 2326 dd3c
00000230: 62e6 9d3e 0774 0d3e d229 80be 312c ac3d
00000240: 3c74 99be b589 a73e 7beb adbd c630 07be
00000250: 0442 b7bc aa34 b2bd b7aa 973d 1e42 bb3d
00000260: 6567 5bbe e659 473e 43e0 eb3d 6c8e a7bd
00000270: cf0d bd3d fc85 583d a811 d33d 07cf 58be
00000280: 10c6 a63d b474 673d 82da 7a3e d304 7a3e
00000290: 0338 a2be 3b3b 98be 21fd c5bd 988d fc3d
000002a0: bcf3 3a3e 3ebf 2bba 7c8e e2bc 7b86 393e
000002b0: ce34 40be fc00 d23c 9f95 28bd 7e86 afbd
000002c0: 8101 083e 4601 2b3e 3ae9 bebd 51e5 89bc
000002d0: e5e7 5cbe f92f ba3d b162 51be cf9c 103d
000002e0: a737 583d 348a 1a3e 781b f63d c0e6 84bc
000002f0: 93ce 1abe 07c8 373e 17a6 903e 5b76 253d
00000300: dfcb 5fbb 8ebf 20be 35ef 03be 9b3a 38be
00000310: 6073 e8bc b014 2d3d 6461 183e c3a6 6abe
00000320: e38a 93be 97da 073b 574a 22bd a74b 51be
00000330: faec 0d3e 1b0c e0bd 65a5 99bd 780f 703e
00000340: 8857 ef3d b99b c939 1b99 44be 7718 7f3e
00000350: 07b2 7a3e 2868 82be fa21 6c3d 4b8c 073c
00000360: cfcf 64bd adf1 b2bd 37d7 323e d189 23be
00000370: d00d 03bc 0179 6bbe 5246 54be a1f3 14be
00000380: 2c69 d8bc 598a 5ebe 4346 96be 2bc0 983d
00000390: 1352 af3e b54b 903e eb8c 51bd c2c1 6dbd
000003a0: ab10 e8bd f8b9 f2bb a4a1 7dbe 0a41 9bbd
000003b0: bcae a33d be54 79be 9b3e 9e3c 85c4 9b3e
000003c0: 05af d8bd b6c7 b5ba 361f 4bbd 850a f2bc
000003d0: af71 343e be5b 8dbe a499 5dbd 9814 c1bd
000003e0: a00b 63be 509c 46be b1a4 0f3e f3f7 023e
000003f0: 42ad ea3c 7a6e 9a3d eed6 8fbe 134e 89bd

attn.out_proj.bias f4 [32]
0.10066078 0.10759644 0.10091899 -0.0009967089 0.07088477 0.01907132 0.014217829 -0.0085272025
-0.021291228 -0.034894112 -0.0137605835 0.015368196 0.05040383 0.009426736 0.112811245 0.1242986
0.007842082 0.033027016 -0.026248742 0.03178786 0.02240492 0.0030628794 0.0067574824 0.014373472
-0.04504723 0.01450334 -0.0012659712 0.06883669 0.059067246 0.096555695 -0.024016434 0.12753099
00000000: 3d27 ce3d 865b dc3d 9eae ce3d 00a4 82ba
00000010: 092c 913d 753b 9c3c e6f1 683c aeb5 0bbc
00000020: f16a aebc 21ed 0ebd 1274 61bc e3ca 7b3c
00000030: 3f74 4e3d 9972 1a3c 9509 e73d 4490 fe3d
00000040: 137c 003c 5647 073d 9a07 d7bc fd33 023d
00000050: 868a b73c 97ba 483b df6d dd3b b67e 6b3c
00000060: 7283 38bd 6b9f 6d3c f2ee a5ba 40fa 8c3d
00000070: 7ff0 713d febe c53d 1dbe c4bc 7c97 023e

classifier.weight f4 [3, 32]
-0.20428888 -0.383407 -0.27764356 -0.22383656 -0.30181828 0.06097414 -0.20606785 0.006466387
-0.020059727 0.2077762 -0.17299582 -0.34197766 -0.34473717 -0.09689542 -0.08093213 -0.37599346
-0.2693567 0.048937734 0.25114638 0.1980934 -0.29256287 0.21291386 0.1542515 0.28927767
0.37357205 0.10308357 0.25409782 -0.26245463 -0.11227152 -0.28808874 0.2400441 -0.3251135
0.12798163 0.1511468 0.31076226 -0.13273507 0.20099053 -0.000502937 0.017692525 0.05228578
-0.056063164 -0.17263702 -0.211564 0.042069744 0.10114134 0.107599296 0.20241667 0.23401733
-0.08603309 0.22205901 -0.1694858 0.27088547 0.106494054 0.040566202 0.09541624 -0.016676445
-0.0041056294 0.13677971 0.14450717 0.13560645 0.17785795 0.20284182 -0.064076446 0.13616294
-0.18075284 -0.047996607 -0.03416752 0.17923836 -0.105245955 -0.17322132 0.09048774 0.26133218
0.2608383 0.13297231 0.17413913 0.13865964 -0.10706244 0.19951066 -0.13798633 -0.12507437
0.001739189 -0.0729185 -0.23269902 -0.049477525 0.19815582 0.020342493 -0.143352 -0.088405706
0.07779383 -0.24448436 -0.16868614 0.06542448 -0.25813812 -0.16288236 -0.07028218 -0.042612612
00000000: 1b31 51be ec4d c4be 4c27 8ebe 6935 65be
00000010: ed87 9abe 05c0 793d 7303 53be fce3 d33b
00000020: 4c54 a4bc 49c3 543e d125 31be b217 afbe
00000030: 6481 b0be 1b71 c6bd bfbf a5bd 3782 c0be
00000040: 1fe9 89be ef72 483d 4296 803e ffd8 4a3e
00000050: cdca 95be 1706 5a3e 1bf4 1d3e 341c 943e
00000060: d644 bf3e 7b1d d33d 1c19 823e 7460 86be
00000070: 9cee e5bd 5e80 93be 1fce 753e 4775 a6be
00000080: 9e0d 033e 3ac6 1a3e 3b1c 9f3e b4eb 07be
00000090: 76d0 4d3e 88d7 03ba eaef 903c 9d29 563d
000000a0: 7da2 65bd c2c7 30be 3ca4 58be 5351 2c3d
000000b0: 3123 cf3d 055d dc3d 5146 4f3e 3da2 6f3e
000000c0: 1e32 b0bd 7063 633e b08d 2dbe 80b1 8a3e
000000d0: 8e19 da3d bf28 263d 9769 c33d 0a9d 88bc
000000e0: 8488 86bb fb0f 0c3e b0f9 133e 6bdc 0a3e
000000f0: 6520 363e c4b5 4f3e 833a 83bd 4c6e 0b3e
00000100: 4617 39be 1798 44bd 3ef3 0bbd 438a 373e
00000110: 318b d7bd ee60 31be a351 b93d 55cd 853e
00000120: 998c 853e e529 083e 8751 323e cbfc 0d3e
00000130: 8d43 dbbd 864c 4c3e 4a4c 0dbe 7f13 00be
00000140: 80f5 e33a 4b56 95bd a748 6ebe f2a8 4abd
00000150: 5ce9 4a3e 4da5 a63c deca 12be 0d0e b5bd
00000160: 5f52 9f3d 1c5a 7abe 0fbc 2cbe 45fd 853d
00000170: ae2a 84be a2ca 26be 1bf0 8fbd 908a 2ebd

classifier.bias f4 [3]
0.017129816 -0.013272601 0.011707332
00000000: d453 8c3c 5375 59bc 1cd0 3f3c
